best_model.pt (torch, 524471 bytes, 110 tensors)

protein_gnn.conv1.att_src f4 [1, 4, 16]
000000 9f ce cf 3c 27 09 df 3e 53 89 03 3f 0f c8 7b 3e
       0.02536708 0.4356167 0.51381415 0.24588035
000010 a0 81 82 be b3 ca 05 bf a2 0a 0b 3d 41 cb a5 be
       -0.2548952 -0.5226242 0.033945687 -0.32381633
000020 90 a6 ac be 07 35 a4 3e 47 25 3a bd b9 09 dc be
       -0.33720827 0.32071707 -0.045445707 -0.42976168
000030 23 58 30 be 64 f7 b5 3e 80 dc eb 3e 3d 24 15 bd
       -0.17221121 0.35540307 0.46066666 -0.036411513
000040 06 21 a9 3c 7f 5f 03 3f 1a 2e 07 3e 0f 08 f6 be
       0.02064563 0.5131759 0.1320118 -0.48053023
000050 82 7c 09 bf 0c df e4 3e 02 5c 4d 3e 46 70 e4 bd
       -0.5370561 0.4470142 0.2005463 -0.11154227
000060 e0 2e 94 3e f3 89 86 3e f1 f8 2b be e0 ab dc 3d
       0.28942013 0.26277122 -0.16794182 0.1077497
000070 d2 21 b1 3e 1e ca 6b 3d e7 60 91 3e 56 43 b4 3e
       0.34596115 0.0575658 0.28394243 0.35207623
000080 3c 26 0d be fc f8 8c 3e 0b cf fb 3e 84 16 56 3e
       -0.13784117 0.2753371 0.491814 0.20907027
000090 14 53 9f be 85 05 86 3e de 9e c2 be d0 da a9 3e
       -0.3111807 0.26176086 -0.3801183 0.33174753
0000a0 95 15 b8 3e 97 3f c4 3d 90 e1 a1 3e 8f d9 08 3f
       0.35953966 0.09582441 0.31617403 0.5345697
0000b0 0c db 04 bf 06 4e 00 bf 55 73 37 3e 9d 77 c1 3c
       -0.5189674 -0.50119054 0.1791509 0.023616606
0000c0 e6 8f 2a be 62 f6 f2 bd 53 d6 ac bb 1f 09 b9 be
       -0.16656455 -0.118634 -0.005274573 -0.3613977
0000d0 46 9c 9d be d9 89 2d 3e f7 33 8e 3d 64 f8 66 3e
       -0.3078329 0.16947116 0.06943505 0.22555691
0000e0 00 a2 8a be 5c 10 a3 bd 65 19 c8 be 15 e4 26 3f
       -0.2707672 -0.07962105 -0.39081874 0.65191776
0000f0 d9 65 e2 3e 52 20 fe be 73 75 8b be ed 83 f7 be
       0.4421833 -0.49634033 -0.27238044 -0.4834284

protein_gnn.conv1.att_dst f4 [1, 4, 16]
000000 b6 02 08 bc a3 1b 82 3e b1 2a bb bd c0 14 32 be
       -0.008301428 0.2541171 -0.09139002 -0.17390728
000010 da ef 97 3d 41 b0 9a 3b 66 37 17 be bf 91 9b 3e
       0.07418795 0.004720718 -0.14767227 0.30384633
000020 2f 6f cd 3a 4f b6 c9 bb f3 c0 b7 ba 1c 19 6e bc
       0.0015673394 -0.006155766 -0.0014019295 -0.014532354
000030 db 84 f3 39 5a c4 39 3e e9 1c a3 bd bd 82 74 bd
       0.00046447557 0.18141308 -0.079644985 -0.059694994
000040 d9 e3 70 3a 0f 0b af bb 0a 57 ff bb e3 72 f1 3d
       0.00091892254 -0.0053418945 -0.0077923583 0.11789491
000050 d0 09 0b be b3 c5 29 be 47 0c 72 bc fd 99 aa 3d
       -0.13577962 -0.16579323 -0.014773435 0.08330152
000060 47 81 4c bc 42 e3 53 3c 94 a7 0c 3d 24 3f 28 bc
       -0.012481994 0.0129326 0.034339502 -0.01026896
000070 29 01 da 3a 70 99 9d 3d 6c d7 c7 3d 1f b7 3e bd
       0.0016632426 0.076952815 0.09757885 -0.046561357
000080 43 8e 5d bc 72 0c 8d 3c 3d 08 b6 bc 86 4f b3 bc
       -0.013522687 0.017217848 -0.022220725 -0.021888506
000090 45 76 ca bb bb 92 98 bc fc dc 2c 3c 4a 55 12 39
       -0.0061786496 -0.018624654 0.010550734 0.00013955418
0000a0 ae 77 97 bc c9 14 78 bc ca 8c a2 3c 75 4a 36 3a
       -0.018489685 -0.015141674 0.019842524 0.0006953844
0000b0 6c 09 9d bc 92 7d 9f bb a6 ba 48 bc fa 2e d7 ba
       -0.019169532 -0.004867264 -0.012251532 -0.0016417198
0000c0 74 c1 bc b5 7a 16 6c 37 6f 61 a9 35 1c d1 73 b9
       -1.4063394e-06 1.4071929e-05 1.2619838e-06 -0.00023252185
0000d0 b1 cc 29 b9 50 8c 0c 36 53 8f 1c b5 a8 cd 5f 39
       -0.0001619335 2.0943298e-06 -5.8323093e-07 0.0002134355
0000e0 be d2 1a 35 1c 1f ce 34 8d 46 e1 b8 6f ec 88 39
       5.767614e-07 3.8393125e-07 -0.00010741977 0.00026116098
0000f0 63 40 4d 39 6f bc 7a b9 26 9c aa b8 14 6d d0 35
       0.0001957431 -0.00023912055 -8.1353166e-05 1.5528954e-06

protein_gnn.conv1.bias f4 [64]
000000 46 fd 0a b7 69 94 7c 33 30 5a 03 b1 70 8c 1c b1
       -8.284411e-06 5.88083e-08 -1.9114275e-09 -2.2780817e-09
000010 80 d5 62 b5 f4 2c 70 36 76 9d 25 32 3c 0d 98 31
       -8.4502244e-07 3.5788953e-06 9.6400665e-09 4.425287e-09
000020 fc 91 fe b7 cf 64 1a b7 e3 d7 94 35 0e ca db b5
       -3.0347139e-05 -9.202587e-06 1.1089691e-06 -1.6375577e-06
000030 39 c6 4c 34 88 bc 7a b5 3e c6 09 35 d6 b3 af b1
       1.9071094e-07 -9.3406607e-07 5.132496e-07 -5.1136153e-09
000040 4c b0 7c b3 69 ff 0a b4 61 ec 45 36 25 a7 1e b6
       -5.8833663e-08 -1.2945169e-07 2.9492878e-06 -2.3641126e-06
000050 ac f3 87 2f 88 5f 99 b5 5a 76 2d b3 7f c0 80 b4
       2.4729496e-10 -1.1427192e-06 -4.038734e-08 -2.3981917e-07
000060 ab 16 87 b6 c9 e7 d3 b3 36 c9 ff 36 7b a2 6c b5
       -4.0259524e-06 -9.8676146e-08 7.6230162e-06 -8.815329e-07
000070 2f a5 1e b2 bb e1 c8 b6 53 af 25 b6 48 fe 6b b4
       -9.234369e-09 -5.986743e-06 -2.4688968e-06 -2.1978587e-07
000080 00 0c 69 b5 1a 96 8f 36 1c 2f 0d b2 1e 8c 2b b5
       -8.6816726e-07 4.279206e-06 -8.217992e-09 -6.390636e-07
000090 a1 12 4d b3 a0 02 40 b1 2d e4 2e 35 2c 70 11 36
       -4.7747225e-08 -2.794117e-09 6.515209e-07 2.1671976e-06
0000a0 33 93 1b 33 d3 80 b1 34 6b 7f 73 34 fc 65 80 36
       3.6222627e-08 3.306255e-07 2.2677493e-07 3.82657e-06
0000b0 56 ab c9 b6 8f bf 67 b3 d3 82 84 35 60 fa e6 34
       -6.010213e-06 -5.39581e-08 9.872841e-07 4.302301e-07
0000c0 b8 80 68 35 77 81 2b 35 87 f4 fa 35 fe d8 a2 34
       8.6614045e-07 6.389086e-07 1.8697618e-06 3.0332734e-07
0000d0 9f e9 16 33 0c 40 d5 36 9e 9c d3 36 dc 91 9b 32
       3.5137074e-08 6.3553507e-06 6.3065227e-06 1.8110704e-08
0000e0 97 1b f2 b6 75 40 54 37 8f 17 b3 b6 a0 ce a1 b3
       -7.215374e-06 1.2651192e-05 -5.3373583e-06 -7.5347316e-08
0000f0 ef 19 1a 31 80 93 17 31 df d0 6c b3 6b ec ad 35
       2.242469e-09 2.2057236e-09 -5.5138e-08 1.2958311e-06

protein_gnn.conv1.lin.weight f4 [64, 3]
000000 2a 93 ee 3d 49 25 f3 bc d6 6e 68 bc 0f aa ac 3d
       0.11649163 -0.029680865 -0.014186582 0.084308736
000010 6a 6a 11 3c 4f 2b 50 3e 1f 5a 8c 3d fa a9 28 3c
       0.008875469 0.20329021 0.06853127 0.010294432
000020 3d 03 95 be 20 6b 1c be dc 2c a5 3b cb 04 28 be
       -0.29104033 -0.1527524 0.005040748 -0.16408078
000030 48 04 01 be 29 ff c3 bb 14 cf 61 3e bc 33 98 be
       -0.1259929 -0.005981345 0.2205165 -0.2972697
000040 f6 0a ea 3c bb 9d 7a 3c 49 79 76 ba d0 26 3f 3a
       0.02856968 0.015296395 -0.0009402228 0.0007291855
000050 97 1b 25 be ea 76 f4 3c 3c ed cd bb f4 73 86 3e
       -0.16123806 0.029841859 -0.006284384 0.2626034
000060 70 15 b9 3e aa de 14 be bb e3 3a bc f8 62 f2 3e
       0.36149168 -0.14538065 -0.011406834 0.47341132
000070 6f b4 e9 bd 81 b2 b0 bc b1 a2 83 be 7d e2 a3 3e
       -0.11411368 -0.021569492 -0.2571006 0.32008734
000080 85 ba 0f 3c b4 2f bd be 41 c5 25 bc b5 66 98 bd
       0.008772497 -0.36950457 -0.01011783 -0.07441465
000090 69 92 e0 bd df 13 4f bc 41 3f ec bd e3 b3 d3 3d
       -0.109654255 -0.012639015 -0.11535502 0.10337045
0000a0 37 1b 16 3c f6 8b 5f 3e 99 d0 65 3c c0 26 f4 3b
       0.009161762 0.21830735 0.014026784 0.0074509084
0000b0 1a 35 85 be 50 58 73 3b 03 0a 70 ba 79 30 0e be
       -0.26017076 0.0037131496 -0.00091567653 -0.13885678
0000c0 01 d7 46 bc 56 bc d2 b9 06 d2 09 3d d7 84 9e 3e
       -0.012136222 -0.00040194642 0.03364756 0.30960724
0000d0 1a 66 01 3e 1b bc 87 bc bb ed 67 3e 2a f3 26 3d
       0.12636605 -0.016569188 0.2264928 0.040759243
0000e0 02 38 4d 3d a6 f0 48 3c a9 33 f1 bd 7c fa 20 be
       0.05010224 0.012264406 -0.117774315 -0.15720552
0000f0 af b8 98 be 4a da 6b bd aa 7d 4e 3e b1 80 28 3e
       -0.29828402 -0.057581224 0.20165125 0.16455342
000100 a4 24 94 3d 98 81 34 be ad 66 68 3d 65 a4 3f 3d
       0.07233551 -0.17627561 0.056738544 0.04678764
000110 ca 7b 3c be de 46 9d be 1f 78 07 bc 4f fe 96 bd
       -0.18406597 -0.3071813 -0.008268385 -0.07372724
000120 ba b9 0b be 17 c3 b9 3d df 3f f2 3d 88 a8 70 3e
       -0.13645068 0.090704136 0.11828589 0.2350179
000130 8b 82 52 3d ce a4 90 bd 01 91 bc 3d 44 90 ea bd
       0.051394027 -0.07062684 0.09207345 -0.11453298
000140 90 3a 00 be 4c 7d 97 3e 93 93 01 bd 14 09 ca bd
       -0.1252234 0.2958778 -0.03163488 -0.09865013
000150 33 f8 a4 3e 52 4c 9d 3d b2 b9 d6 3b 59 c5 ac 3e
       0.3222061 0.076805726 0.0065528983 0.33744314
000160 c8 bb bb bc cd 66 0d be cc fc ba bc c7 43 ad 3d
       -0.02291669 -0.13808747 -0.022825621 0.08460193
000170 75 9c 41 3e f4 3c c4 bd 94 ad 87 3d a5 01 19 3e
       0.1890734 -0.095819384 0.06624904 0.14942034
000180 7e 8f ae 3e 63 c8 77 be ab c1 1d be 69 9b 80 be
       0.3409385 -0.24197535 -0.1540591 -0.2511857
000190 87 f2 cb 3e 9b 7c 51 3e c0 62 e7 bc 07 32 38 3e
       0.3983347 0.2045769 -0.02824533 0.17987834
0001a0 ae ac 53 be bc cc b4 be 2b eb 79 3c 08 cf 8d be
       -0.20671341 -0.3531245 0.015253822 -0.27697015
0001b0 42 04 95 3e 11 48 db bd 78 15 c5 bd f3 ab cc be
       0.2910481 -0.10707105 -0.096232355 -0.39974937
0001c0 d0 5d 03 3e 48 cb 64 be fc db 27 3e db 27 76 be
       0.12828755 -0.2234317 0.16392511 -0.24038641
0001d0 e8 1f e0 3d a7 aa 45 3d 21 2f c2 3e 9d 4b 4c bc
       0.10943586 0.04825845 0.37926582 -0.0124691995
0001e0 ee dc 98 be 2b 0f a1 3c 16 61 63 be e3 3e 4d be
       -0.29856056 0.019660553 -0.22205004 -0.2004352
0001f0 63 ce e9 3d 79 7a 29 be 0d 18 93 be c3 1b 95 3e
       0.11416318 -0.16550626 -0.28729287 0.29122743
000200 0f f8 7d 3e 88 3b 4f be b4 6d cf 3e 38 30 5f 3d
       0.24801658 -0.20237553 0.40513384 0.054489344
000210 63 35 97 3d 1e 8a 27 bd 0c 9d 77 be 99 cf 53 3e
       0.073832296 -0.040903203 -0.24181002 0.20684661
000220 d0 f4 de be 35 e0 af bd d9 6c 86 3d 9e a3 2a 3e
       -0.43546152 -0.08587686 0.0656373 0.16663978
000230 2d d5 12 be 4a 50 10 bd dd a3 40 3d 57 12 13 bd
       -0.14339133 -0.03523282 0.047031272 -0.035906162
000240 25 a5 93 be 32 24 07 3d 76 b1 79 3c 25 49 7e be
       -0.28836933 0.032993503 0.015240064 -0.2483259
000250 12 0d 85 bb c0 d4 d7 bc 5b 6a 5c 3d 8c d3 6c ba
       -0.004060396 -0.026346564 0.053812366 -0.00090342085
000260 3e 7a d3 bb 0b a1 b6 be 21 64 f0 bb 5c 26 a2 3e
       -0.0064537814 -0.3566974 -0.007336155 0.3166989
000270 98 4a 07 be 50 2c b4 bb 31 9f 63 3e f6 75 90 be
       -0.13212049 -0.0054984465 0.22228695 -0.28214997
000280 6d 3b 9b 3e fe ee 67 3b 05 b7 95 3e 49 ea eb bd
       0.30318776 0.0035390253 0.29241195 -0.11519296
000290 99 b2 16 bc df 00 6c 3d 6c e5 33 3b 41 d4 91 be
       -0.009197854 0.05761802 0.0027449979 -0.2848225
0002a0 11 ef 0c bf c2 c2 a6 3e 40 8b 92 3c 6d 53 9e 3e
       -0.55052286 0.32570463 0.017888665 0.30923024
0002b0 71 4d a4 be 23 0c 46 bc 62 70 15 bf 1f 1b 45 3a
       -0.32090333 -0.012087855 -0.5837461 0.0007518995
0002c0 30 26 2b 3e c7 6c b2 3e 1c 20 04 3c 2d 83 b5 be
       0.16713786 0.34848616 0.008064296 -0.35451642
0002d0 53 0e e0 3e b2 0a 0a 3c f5 04 8b be bd 2a 63 be
       0.4376093 0.0084254015 -0.2715222 -0.22184272
0002e0 8d 22 1b bc b6 ed a4 3e 25 70 97 be d3 45 7c bb
       -0.009468687 0.3221261 -0.29577747 -0.0038493767
0002f0 08 92 04 3e 73 93 bb be e0 fd 1a 3e 09 82 17 3c
       0.12946332 -0.36635932 0.15135908 0.009247311

protein_gnn.conv2.att_src f4 [1, 4, 16]
000000 23 44 b7 3d b0 2b d0 be 84 29 6e be 98 a9 4f 3d
       0.08948543 -0.4065833 -0.23258024 0.050698847
000010 41 20 c8 3e 03 8b be bd 4f f8 8c bd df d4 c4 be
       0.39087108 -0.09303858 -0.068832986 -0.38443658
000020 7e 30 05 be dc df 88 be 8d 3e b5 3e 9a f4 62 be
       -0.1300678 -0.2673329 0.35399285 -0.2216362
000030 8c d4 d0 3d 7e 3b 75 3e dc b6 00 3f f2 ef 84 3e
       0.1019679 0.23948476 0.5027902 0.25964314
000040 86 9d b0 3e 7e f4 aa 3e 4b db a6 3e 3e b2 6d bc
       0.3449518 0.33389658 0.32589182 -0.014507828
000050 f4 6a 98 3e e8 52 37 3e 8e be 42 3e 37 c4 3c bd
       0.297691 0.1790272 0.19018003 -0.046085563
000060 f2 28 6a bd c5 2c f0 3d dc eb 5e be 94 fb d6 3d
       -0.057167955 0.11727289 -0.2176966 0.104972035
000070 85 7b c7 3e 9d ad 98 3e 15 9d 97 3e 43 a8 e7 3d
       0.38961425 0.29819956 0.29612032 0.1131139
000080 d8 18 5b 3e 74 31 b5 be c9 8a e9 3d c4 1b 96 be
       0.21396196 -0.35389292 0.11403424 -0.29318058
000090 6d 04 b9 bd 97 f4 1f 3f ca 9e 1c bf 28 f4 8f 3e
       -0.09034047 0.6248259 -0.6117979 0.28115964
0000a0 64 2f ad be 23 d4 bc 3e b2 1f bc bd 3e 88 0b bf
       -0.3382522 0.36880597 -0.09185733 -0.54504764
0000b0 44 b2 b4 be f9 bd 01 3f c7 92 fb bc 0c e1 98 be
       -0.35292256 0.506805 -0.030709637 -0.29859197
0000c0 0a b1 f5 bd f6 08 05 be 6d 3a 5d 3e 56 89 a8 3e
       -0.11996658 -0.129917 0.21604319 0.3291728
0000d0 8a 9e 30 be 5b ca 89 3d e2 bd 4f 3e b4 f5 93 3e
       -0.17247978 0.06728049 0.20287278 0.28898394
0000e0 a4 d5 df bd 1a b5 a5 3d d7 9c 1a be 7f 20 72 be
       -0.109294206 0.08091183 -0.15098892 -0.23645209
0000f0 73 24 e7 3e 5d 1a 3c be 3b cf 9c 3e 98 c5 d6 bd
       0.45144996 -0.18369432 0.30626854 -0.10486907

protein_gnn.conv2.att_dst f4 [1, 4, 16]
000000 b0 48 28 bb a7 b6 90 3b dc f7 9e 38 c9 c5 89 bb
       -0.002567809 0.004416305 7.5801945e-05 -0.004204486
000010 9e 10 c6 bb 26 93 a2 bb 5a e7 9c bb 62 9e 4e 3b
       -0.0060444614 -0.004961389 -0.0047883214 0.003152751
000020 b4 57 5c 3b fd 2e 0c 3b e2 cd d3 bb 81 82 d3 3a
       0.003362161 0.0021390312 -0.006463752 0.0016136916
000030 98 18 ec bb 52 39 e9 bb 19 bd 97 bb 92 b2 15 3b
       -0.0072050802 -0.007117429 -0.0046306965 0.0022842032
000040 fa 19 79 bd f5 39 d8 bd dc f2 08 bd 67 94 a9 3c
       -0.06081579 -0.105579294 -0.033434734 0.020700647
000050 6b 50 2f bd 2d 7f 13 3b 0c a1 d8 bd 88 50 a5 3d
       -0.042801302 0.0022506223 -0.10577592 0.08072001
000060 7f e7 4f 3d fe 35 1f bd 37 8e cf 3d 5a 20 a3 bd
       0.05075788 -0.03886985 0.10134547 -0.07965155
000070 e5 17 be 3d 13 1e 75 3d 06 6e d2 bd bb 8f 20 3d
       0.09281901 0.059843134 -0.102748916 0.039199572
000080 15 40 f2 3c dd 78 da bd dd 66 cd 3c 46 73 8c 3b
       0.029571572 -0.10667584 0.025073463 0.0042862026
000090 46 be 05 bd 06 4f 5b bd aa 98 98 bc 95 0a 26 3d
       -0.032652162 -0.05354216 -0.018627483 0.040537436
0000a0 39 f5 10 3c 26 d6 32 3d 48 c0 34 b9 d2 9f bd 3c
       0.008847528 0.04366126 -0.00017237768 0.023147497
0000b0 da 07 13 bd c8 f4 32 3d f0 61 b7 b8 19 e8 83 bd
       -0.03589616 0.043690473 -8.744362e-05 -0.064407535
0000c0 c0 a4 e2 b9 fc 67 32 3c dd 4c 31 bb 6d 94 d4 3b
       -0.00043228827 0.01088905 -0.002705387 0.0064874203
0000d0 fd 5f 01 3b 01 3c 9d ba 1a 80 06 ba a5 02 2c bb
       0.0019741051 -0.0011996032 -0.0005130783 -0.0026246693
0000e0 48 25 0d 3c f4 ac 86 3b b2 ba f4 bb 1f ae 91 3a
       0.008614846 0.004109973 -0.007468545 0.0011114514
0000f0 75 e8 7e 3b 47 99 c0 3b 78 da ea ba ad 67 bf bb
       0.003889588 0.005877647 -0.0017917892 -0.0058412165

protein_gnn.conv2.bias f4 [64]
000000 90 a7 80 35 86 45 79 35 97 7a 17 35 01 4f c0 b5
       9.58551e-07 9.28609e-07 5.6430275e-07 -1.4328108e-06
000010 04 4e 84 32 8d b0 e1 b5 77 9a b0 b3 46 f5 c9 b3
       1.54023e-08 -1.6815189e-06 -8.223736e-08 -9.404407e-08
000020 2c a6 38 b5 2c 23 07 35 b7 32 42 34 8e f7 ab b5
       -6.8787153e-07 5.03426e-07 1.8086108e-07 -1.2812541e-06
000030 d5 17 18 b4 cd 49 36 b5 87 99 21 34 80 cc c4 35
       -1.4164773e-07 -6.790768e-07 1.5050146e-07 1.4662655e-06
000040 49 88 3c b4 08 f9 80 b4 58 72 8c b5 48 51 65 32
       -1.7558445e-07 -2.4023052e-07 -1.0464091e-06 1.3348036e-08
000050 6f 22 5f b4 80 98 ec b3 90 5d 09 b4 fc 5e 0e 33
       -2.078102e-07 -1.1017346e-07 -1.2793157e-07 3.314834e-08
000060 98 76 2e b4 64 51 62 35 08 16 07 35 e0 3e 12 35
       -1.6248157e-07 8.431e-07 5.032348e-07 5.4480734e-07
000070 fa 0d 96 35 b9 ae 98 34 d6 24 d0 b3 04 7e 86 b4
       1.1179939e-06 2.8439334e-07 -9.692455e-08 -2.5051133e-07
000080 d6 ca 63 36 e3 76 95 36 a2 f7 03 35 fe 75 d2 b4
       3.3943702e-06 4.4543863e-06 4.9161656e-07 -3.92014e-07
000090 70 85 ad 34 03 74 39 35 15 46 9d 34 b2 23 52 36
       3.232085e-07 6.908669e-07 2.929452e-07 3.1313216e-06
0000a0 e0 49 0b b5 3d 64 b0 35 4c 71 e2 b5 63 72 ab b3
       -5.188904e-07 1.3142195e-06 -1.6871286e-06 -7.983615e-08
0000b0 72 90 61 af e3 17 ab 35 9a 33 bf b5 ca 26 2f 32
       -2.0514948e-10 1.2747445e-06 -1.4245627e-06 1.019516e-08
0000c0 db 24 80 b5 dd 86 44 b5 6d a1 60 35 f6 65 ac 35
       -9.54747e-07 -7.321194e-07 8.368141e-07 1.2844673e-06
0000d0 ef 22 03 b5 14 51 55 b5 d3 70 3c 33 70 2e a0 33
       -4.885214e-07 -7.946667e-07 4.3874774e-08 7.4590275e-08
0000e0 6e 7d 8e b4 13 a5 45 36 16 86 ad b5 59 75 d7 35
       -2.6540823e-07 2.9451373e-06 -1.2928529e-06 1.6052901e-06
0000f0 3a 14 2c b5 32 3d f2 b4 d2 5a 94 32 ab b9 c7 b5
       -6.4104427e-07 -4.5120538e-07 1.7270768e-08 -1.4880692e-06

protein_gnn.conv2.lin.weight f4 [64, 64]
000000 8c b4 9c 3b ff bb 40 3c 70 ca cb 3b a2 26 1f bb
       0.004782265 0.011763572 0.006219201 -0.0024284502
000010 52 f0 97 bc 3e 7b 82 3b a8 14 b1 bb b2 ce 35 3c
       -0.01854721 0.003981977 -0.0054040737 0.011096643
000020 c0 d2 d9 bc dd 6a 37 bc f9 1d 4f bd e4 51 fb bc
       -0.026589751 -0.011194912 -0.050565694 -0.030678697
000030 9e 2c c5 bc 9e ab b7 bb 33 50 0e 3b a9 57 12 bc
       -0.024069127 -0.005605175 0.0021715283 -0.008932033
000040 14 7f 66 3b 74 14 19 bb 15 b2 5d bd c3 4e 95 3c
       0.003517096 -0.0023358138 -0.05412491 0.018226033
000050 bb 67 41 3c 1b c2 46 3c 1f 52 56 3c d1 22 22 bc
       0.011804516 0.012131239 0.013081103 -0.009895996
000060 4e 98 38 bd 6b 62 a4 3b ae 90 a2 3b 3d aa 16 3c
       -0.045067124 0.005016615 0.004961095 0.009195861
000070 6a b3 69 3b 91 90 cb 3c d5 c7 53 bd c4 1b 2f bd
       0.0035659918 0.024849208 -0.051704247 -0.04275109
000080 46 89 44 3c 1e 6b 39 ba 9b fd a7 3c ff 0b a5 bb
       0.011995619 -0.00070731516 0.02050667 -0.0050368304
000090 2b 76 17 3b 9d cc f9 3b be be c1 bc 9a c3 b4 bb
       0.0023111205 0.0076232688 -0.023650523 -0.0055164816
0000a0 5a d5 b3 bc 5f a2 5f 3d 4b f2 a9 3b d2 7b 23 bc
       -0.02195232 0.05459821 0.0051863543 -0.0099782515
0000b0 02 54 46 3b 37 73 f1 3a a3 32 4a 3c 33 00 1e 3c
       0.0030262475 0.0018421178 0.012341174 0.009643602
0000c0 26 37 e8 bc 4d 68 36 bd bb 46 3f 3b a1 69 9e bc
       -0.02834661 -0.044533063 0.0029186446 -0.019337477
0000d0 31 9d 0c bc 60 04 1c bd 6e de 51 bb f9 42 13 3c
       -0.008582399 -0.03809011 -0.0032023448 0.0089881355
0000e0 0e 64 22 bd 3a 9e ad bc 2d c6 bd bc 67 44 98 bc
       -0.0396462 -0.021193612 -0.023165787 -0.018587304
0000f0 b2 81 ab 3c ab 21 c8 3b 64 ee 4b 3b fd 40 2a bd
       0.020935867 0.006107529 0.0031117434 -0.041565884
000100 3a 35 59 3c 2a e5 c5 3b 31 d7 80 3d 5d df d4 bb
       0.013257319 0.0060392814 0.062910445 -0.0064963535
000110 9a 87 23 bd 4c ab 8b bd 39 52 e0 bd 69 74 38 bd
       -0.03992424 -0.06819782 -0.10953183 -0.045032892
000120 41 b8 6a 3e 90 72 a9 3c 97 4b 85 3d dd fe 19 bd
       0.2292185 0.02068451 0.06508558 -0.037596572
000130 4e cc 24 3d 01 8f 85 3c c8 70 9e bd de c7 98 bd
       0.040233903 0.016303541 -0.07736355 -0.07459997
000140 de 37 b4 bd 10 69 fb 3c 0b 4f b9 bb 4e fe a3 3d
       -0.08799718 0.030689746 -0.0056551746 0.08007489
000150 3a 48 0e be 76 5c 93 bd 7a a4 b6 bc 86 94 1a bd
       -0.1389474 -0.0719537 -0.022295225 -0.0377393
000160 34 5d 2d bd 25 71 75 bd f8 59 4c bd cc 50 ad 3d
       -0.042325214 -0.059922356 -0.04989049 0.084626764
000170 60 64 07 bd 05 f2 71 bc 98 2e c8 bd 3f 8c 91 bc
       -0.03305471 -0.014767175 -0.09774512 -0.01776707
000180 38 0a 16 3e 6d 4f 25 3d ea b7 23 bd 5e 49 8a bc
       0.14652336 0.04035895 -0.039970316 -0.016880687
000190 f6 8b 28 bd 18 dd a8 3a 71 d4 11 3e dd 68 a5 bd
       -0.041149102 0.0012883274 0.14241196 -0.08076642
0001a0 d8 73 2f 3e 80 4f b6 bd 81 46 71 3e 72 20 de 3c
       0.17134035 -0.08901882 0.23562051 0.02711508
0001b0 e1 17 ec 3d a3 46 8e bc 50 c0 d8 3d da 82 6c bd
       0.11527992 -0.017367667 0.10583556 -0.057741977
0001c0 be fa 5f bd db 60 ef bc e6 83 01 3c 45 22 a7 3d
       -0.054682486 -0.029220989 0.007904982 0.08160833
0001d0 96 30 51 3c 8b 32 96 3d f7 4a 90 3e b1 7c f9 bd
       0.012767931 0.07333859 0.28182194 -0.12181986
0001e0 c8 12 22 bd c8 7c 33 3e 11 90 6b bd 3e f7 a6 bd
       -0.039568692 0.17528069 -0.05751044 -0.081526265
0001f0 bd ec 3f 3d b4 10 b9 ba 6f ea 84 bd 90 26 b6 bc
       0.04685663 -0.0014119358 -0.06490027 -0.022235185
000200 ef c0 22 bc ad db 00 bc a6 30 fc bc ed 85 12 3d
       -0.009933694 -0.007864875 -0.030784916 0.035772253
000210 17 f0 df bb 22 54 2d bb 60 61 1c 3c 93 73 9a bc
       -0.006834041 -0.0026447852 0.0095447 -0.018853938
000220 0d 6b df 3c 58 35 8d bb 19 53 e4 3d 3e 6a 9c 3d
       0.027272725 -0.0043093376 0.11148662 0.076374516
000230 93 53 9f 35 6a 5d e4 3b 34 b6 36 3d 92 46 e5 3c
       1.1870746e-06 0.0069691436 0.044607356 0.027987752
000240 60 f8 07 bd 06 9d 62 bc 12 56 e5 3d 1e eb 19 be
       -0.033195853 -0.013831383 0.11198057 -0.15031096
000250 53 a6 cd 3c 7c bc f7 bd 55 a9 e4 bc 18 8a 31 bc
       0.025103724 -0.120964974 -0.027912775 -0.010836147
000260 14 cb a7 3d 5e 7b 0e bc f5 9f 07 be 3f 4a e5 bd
       0.08193031 -0.008696405 -0.13244613 -0.11195802
000270 52 0d d3 3b ac 5a 6e bd 70 65 f7 3d 5a 18 46 3d
       0.006440797 -0.05819194 0.120798945 0.048363067
000280 b3 3c 13 3d f4 82 1f 3d 89 5f 1e bd 2d 89 1f bd
       0.03594656 0.038943246 -0.03866533 -0.03894918
000290 6e d6 eb bb 82 cb 91 bc bb ab c4 3d 5c f4 ca 3c
       -0.007197193 -0.017797235 0.096030675 0.024774723
0002a0 8d f1 ad bd 16 c5 de bc b9 96 e3 bc d4 5f 45 3d
       -0.08493338 -0.027193587 -0.027781831 0.048187092
0002b0 34 c6 5c bd 2c ce af bc 11 00 32 3c ad 2c 80 3d
       -0.05389996 -0.021460615 0.010864274 0.06258521
0002c0 aa e6 15 3d 69 b1 9a 3d 7f 9e a4 bc aa 9f 80 3d
       0.03659693 0.075533696 -0.020095108 0.062804535
0002d0 e4 2e 0e 3d 63 88 f2 3d df 77 ec 3c c7 0f 34 3c
       0.034712687 0.1184242 0.028865753 0.01099009
0002e0 59 0b aa 3d 63 d6 af 3d e8 8a a7 bb 27 d3 01 3e
       0.08302946 0.08585813 -0.0051129945 0.12678204
0002f0 9c 7e 81 bc 48 67 9c bc e4 c3 91 bc 9a 33 05 3e
       -0.015807442 -0.019092217 -0.017793603 0.13007966
000300 a0 89 9e bc 49 7c 80 bc 61 7f f1 3b 45 0d ac 3b
       -0.019352734 -0.015684264 0.007369921 0.0052506053
000310 42 d2 fa bc 73 9f 74 3c 21 5a 84 bb 92 ff 55 bc
       -0.030617837 0.014930594 -0.0040390645 -0.013061421
000320 44 04 24 bc d0 a5 60 bd 8c cb 41 bc 0e 52 0e bd
       -0.010010783 -0.05484563 -0.0118283145 -0.034746222
000330 e6 4b cb bc 5f 50 d7 bc 2b 38 18 bd f0 cd 9f 3b
       -0.024816465 -0.026283441 -0.03716294 0.0048768446
000340 fa 4b c4 bb b8 e1 6c 3b 8a 36 09 bd 6a 59 39 3d
       -0.0059905024 0.003614528 -0.033499278 0.045251288
000350 c4 71 ae 3b 67 2b 92 3c c2 97 9b 3b c4 48 93 3b
       0.0053236205 0.017842961 0.0047483156 0.0044947583
000360 ed de ed bc c4 ee d8 3b 12 03 a3 3c b5 85 01 3d
       -0.029036963 0.00662026 0.019898925 0.031621654
000370 d8 cd 6d bb b7 89 15 3d dc b8 20 bd be f8 8c bd
       -0.0036286023 0.03650829 -0.039238796 -0.06883381
000380 d1 35 ea bc 1c e5 18 3a 3c f4 8a 3c c2 80 61 bd
       -0.028590115 0.000583248 0.016962163 -0.055054434
000390 7a d5 37 3b 58 f0 ee 3b 84 d9 12 3d 39 db d7 b8
       0.0028050826 0.007291835 0.03585197 -0.00010292832
0003a0 2e a5 2c bd d3 d7 c6 3d 8e a2 86 3d c0 59 14 3b
       -0.042149715 0.09709134 0.065739736 0.0022636503
0003b0 47 e3 0b bd e9 79 f7 39 e2 1b 02 3c 46 63 54 3d
       -0.034152295 0.0004720234 0.007941218 0.051852487
0003c0 41 93 05 bc 69 70 c2 bd d4 d3 46 3b 15 10 5d bc
       -0.008152784 -0.09494097 0.0030338662 -0.013492604
0003d0 07 7d cc bc c9 af 1a bc 0b 1b df bc 99 a9 63 3d
       -0.024961961 -0.0094413245 -0.027234575 0.055581663
0003e0 f7 9b 4b 3a e7 15 b9 bc e1 c5 b5 bc 71 c1 fa bc
       0.0007767076 -0.022593452 -0.022189083 -0.030609818
0003f0 69 e5 41 3c 64 8a e4 3b 8a 7c b3 bb b0 6a 85 3c
       0.011834481 0.0069745053 -0.0054774927 0.016286224

protein_gnn.conv3.lin_l.weight f4 [64, 64]
000000 e7 d4 e6 3b 4c d7 9c bd 48 29 cc 3b 14 b4 52 3c
       0.007044423 -0.07658252 0.006230507 0.012860317
000010 7e de 1c bd a6 e4 ea 3c 8d 3f 2e bd 84 e4 aa 3c
       -0.038298123 0.028673481 -0.042541075 0.020860918
000020 32 df dc bd a0 1a 6e 3b 8d 45 49 bd 94 b8 a0 bd
       -0.107847586 0.0036331788 -0.049138594 -0.078477055
000030 38 4f 50 bd 1a f2 15 3e c4 bc 00 3c 53 4d 2b 3d
       -0.0508568 0.14643136 0.007857505 0.04182179
000040 2c 78 31 3d ca de bd 3a 4c 15 27 bd 78 24 2a 3b
       0.043327495 0.0014485952 -0.040791795 0.0025961678
000050 00 ab 94 3d a5 13 1d 3b 40 51 f5 3b 09 25 1a bd
       0.07259178 0.0023968008 0.0074864924 -0.037632976
000060 8c b3 7a bb 75 67 de bb b9 4b 1e bd 3d 57 b7 3c
       -0.003825399 -0.0067872354 -0.038646434 0.022380466
000070 c6 54 37 3d a5 db e8 bc 67 75 93 bc e6 63 9c 3d
       0.04475858 -0.028425047 -0.018000318 0.076362416
000080 c4 cb 2c 3d 85 e9 9f bd 47 6c 3d bd db ac 81 bc
       0.042186514 -0.07808212 -0.04624584 -0.015829494
000090 cc 88 0a bd 79 b3 f6 bc a6 da 50 3d 5f 50 dd bc
       -0.033821866 -0.030114876 0.05098977 -0.027015863
0000a0 58 f4 96 bd c5 0c 86 bd a4 4a cd bd 05 be 61 3d
       -0.073708236 -0.06545404 -0.10024002 0.055112857
0000b0 07 21 e5 3a 25 51 ca 3d a7 d7 a2 bd bc a9 9b 3b
       0.0017481156 0.09878758 -0.07951289 0.0047504585
0000c0 a3 f4 5d b9 b5 0d b9 3b 87 38 90 3c 9b 38 8f bb
       -0.00021167337 0.005647386 0.01760508 -0.0043707616
0000d0 25 de 37 bd ea 38 ae bc 63 59 61 3c 71 9c be bb
       -0.044889588 -0.021267373 0.013754222 -0.005816989
0000e0 c1 aa d8 3d 6c 94 48 bd 61 88 0a bd 89 12 39 bd
       0.10579444 -0.04896967 -0.033821467 -0.045183692
0000f0 ae 50 db bc 84 23 34 bd 4e 06 8c 3c 3c 17 93 bc
       -0.02677187 -0.043979183 0.01709285 -0.017955415
000100 33 6e 86 bc 17 a7 24 bd 0f e9 32 bc 11 a8 7a bb
       -0.016409969 -0.04019841 -0.010919823 -0.0038247148
000110 13 c7 f2 3c 35 f1 7d 3c 2c 4c 26 3e 49 02 c0 bc
       0.029635942 0.015499403 0.16239995 -0.02343859
000120 bd 92 9c 3c bc 5d f9 bc 06 6c 17 3e 3d 54 2c bb
       0.019112939 -0.030440204 0.14787301 -0.0026295327
000130 f6 22 59 3c 9a aa 14 bd fa 90 8b bc a0 d2 95 bd
       0.013252964 -0.03629551 -0.017036904 -0.07315564
000140 32 9b e7 3b 94 9f 4d 3c 2f e8 8f bd ae df 10 3b
       0.0070680613 0.012550253 -0.070267074 0.002210598
000150 07 32 2b 3c 78 0c 01 3b fe b2 01 bd 98 03 ad bd
       0.010448939 0.001969127 -0.03166484 -0.08447951
000160 ed e0 d2 3b f5 0d d5 bc f5 fa 2d 3c 1c 6b 4b 3b
       0.0064355046 -0.026007632 0.010618915 0.0031039184
000170 55 79 29 bd ec d6 55 3d f8 d1 6d 3d 1b a6 96 3d
       -0.041375477 0.05220692 0.05806157 0.07355901
000180 15 27 df 3b df a4 85 bd da 4a e4 3c 6d 08 5b bd
       0.006810079 -0.06525587 0.027867723 -0.053474832
000190 12 9a 10 3c fd 83 a8 3d 51 64 03 3e 9c cd 95 bd
       0.008825796 0.082283 0.12831236 -0.073146075
0001a0 cd 8b fe bc 53 f1 5e 3d 66 23 7d bc f9 05 16 3d
       -0.031072522 0.054429363 -0.015450334 0.03662679
0001b0 a4 3f 2e b9 0a f8 9f bc 9f 51 1a 3e 55 c5 a3 bc
       -0.00016617641 -0.019527454 0.15070198 -0.019991556
0001c0 2e 82 e0 3c 70 a7 8b 3d a0 b5 b5 3d 8b ab 35 3e
       0.027405825 0.068190455 0.08872533 0.1774122
0001d0 e3 68 fd 3b 7a a8 87 bd 59 b8 5f bb 3d d7 2c bd
       0.0077334507 -0.06623931 -0.003413698 -0.042197455
0001e0 7c b4 65 3d e3 dd 7d 3d 47 a9 1c bd 45 56 1e 3d
       0.056080326 0.061979186 -0.038247373 0.03865649
0001f0 aa b4 f6 3d 56 07 80 3d 80 d2 0c bd 04 75 e9 bd
       0.12046178 0.06251399 -0.034380436 -0.11399272
000200 df 6d 16 bc c1 23 21 ba 01 e8 22 bd ad 72 64 bc
       -0.009181469 -0.00061469903 -0.039772037 -0.013943356
000210 f3 d1 8b bb 7d 42 9b bb 40 f3 28 bd b0 e2 a7 3b
       -0.0042669713 -0.0047381506 -0.041247606 0.005123459
000220 ac 39 22 3c b3 c0 30 39 77 55 4a bc f5 e0 25 bd
       0.009901445 0.00016856454 -0.012349478 -0.04049774
000230 05 11 80 bc 65 af 80 bc 00 c9 27 bc 11 d8 e3 39
       -0.015633116 -0.015708635 -0.010240793 0.00043457796
000240 a8 39 a8 bb e1 b0 a3 3c bc 9e 49 bd 3a 7e f6 ba
       -0.0051338263 0.019981803 -0.049223647 -0.0018805929
000250 cd 21 76 bc 17 4a 53 bb 7e be 0d 3d 50 02 97 bc
       -0.015022707 -0.0032240206 0.034605496 -0.01843372
000260 2c d5 2b bc 48 b5 76 bb 1e 7e 0b bd a1 32 a6 bc
       -0.010487836 -0.0037644673 -0.03405582 -0.020287814
000270 a4 85 09 3d 0e c1 f9 bb 24 5a ae bb e7 a1 34 bb
       0.033574715 -0.007621891 -0.005320804 -0.0027562322
000280 99 16 7f 3d b7 eb 11 bd 06 7e 5e bd d8 80 61 bc
       0.06227741 -0.035625186 -0.054319404 -0.013763629
000290 23 bf 55 bb c1 bc 82 3c dc 53 ba bb 93 64 69 3d
       -0.0032615147 0.015959146 -0.0056862663 0.05698068
0002a0 09 f6 a1 bc 46 fd 70 bd e4 3f 34 bd 16 26 92 3c
       -0.019770639 -0.05883529 -0.044006243 0.017840426
0002b0 ab 5f e2 37 9c 5f c3 3c 28 37 26 bc f6 a1 3e 3a
       2.6985848e-05 0.023849301 -0.010144986 0.0007272059
0002c0 8c 39 96 36 9e f5 90 bc 7b b0 41 bc 3f d0 12 bc
       4.4770477e-06 -0.017695244 -0.011821861 -0.008960783
0002d0 48 fd 6d 3b 8b 7c 6d bc 0a 08 c7 bb ad 97 00 bc
       0.0036314297 -0.014495025 -0.0060739564 -0.007848662
0002e0 e2 0f ce 3c 96 0c 0b 3b 7d 1d f9 bb b0 6b 39 bd
       0.025154058 0.0021217219 -0.007602392 -0.045268714
0002f0 db f1 72 3c 62 8f 2d bc 8a 22 17 bc 76 b4 71 bc
       0.014828171 -0.010593267 -0.009224543 -0.014752498
000300 0f 92 0c ba 9c 25 8f 3d cb a0 99 bd 26 33 6c 3d
       -0.00053623406 0.06989595 -0.07501372 0.057665966
000310 3f c4 38 3d 6a 48 2b bd d6 5d 7c 3d 94 0f 2b bd
       0.04510903 -0.041817106 0.061612926 -0.041762903
000320 dc bd 63 bd 34 d1 5b 3c d0 68 be 39 bb d8 f0 3c
       -0.055600986 0.013416577 0.00036317715 0.02940022
000330 4d 1f 3d 3d ba d5 3b bd f2 23 a5 3c 55 89 a7 3d
       0.04617243 -0.045858122 0.020158742 0.08180491
000340 a2 ad 6a 3c aa 16 b2 bc 02 52 ba bc 47 2a 76 3b
       0.014323624 -0.021739323 -0.022744182 0.003756182
000350 fa b1 18 3c 77 99 9c 3b ac a8 47 bd 2e 9f f8 bc
       0.009319777 0.0047790366 -0.048744842 -0.03034934
000360 ab 76 4a 3d 0a 0e 07 3d 58 d2 ae bd d5 cb e4 bc
       0.049429577 0.032972373 -0.08536214 -0.027929226
000370 2b 8e a3 bc ea 74 89 bc 67 cd 68 ba c4 26 b7 bc
       -0.019965252 -0.016779382 -0.0008880705 -0.022357352
000380 2d f8 06 bc d0 f2 77 bc 5e ff 96 bc de 5f a4 3c
       -0.008237881 -0.015133575 -0.018432315 0.020065244
000390 fb f4 05 3d 92 d0 f2 3d cd 64 61 bd 49 a8 a2 bd
       0.032704335 0.11856188 -0.05502777 -0.07942254
0003a0 c3 0e 6a bd 39 56 14 3d 58 0e 87 3c 74 62 19 bd
       -0.057142984 0.03621504 0.016486332 -0.037447408
0003b0 ca 91 bb 3a c8 67 40 3d 26 a0 1f bd c2 b6 0b 3d
       0.0014310416 0.046973974 -0.03897109 0.03410984
0003c0 8f d0 8c bc f6 68 09 bd 18 8c af bc 8a 61 1e bd
       -0.017189292 -0.033547364 -0.021429107 -0.03866724
0003d0 64 92 50 bb ae 69 32 bc 97 f0 ef 3c 5d c6 7e 3d
       -0.0031825537 -0.010889454 0.029289527 0.062200893
0003e0 0f 78 59 3d 1a a0 c2 bc 33 41 38 3d 77 4a 22 3d
       0.053093012 -0.023757983 0.044984054 0.039621796
0003f0 52 ad 4f 3c 78 e9 7c bd 16 1e 8b 39 89 b0 53 bd
       0.0126756 -0.06174609 0.00026534562 -0.05168203

protein_gnn.conv3.lin_l.bias f4 [64]
000000 db 86 1a b6 2c 74 47 b5 3c 22 20 b3 a2 05 a6 b3
       -2.3026284e-06 -7.430233e-07 -3.728404e-08 -7.731002e-08
000010 91 8d 80 36 a4 a8 a8 34 b9 13 60 35 d6 d9 5a b5
       3.8311778e-06 3.141514e-07 8.3475203e-07 -8.152832e-07
000020 87 9e 4c 35 04 27 89 34 20 1e 5c b4 89 93 e2 34
       7.622661e-07 2.5546626e-07 -2.0500056e-07 4.2203126e-07
000030 9c 15 ca b4 85 7d c5 35 31 df 82 b2 01 1a 24 b6
       -3.7641155e-07 1.4714175e-06 -1.5235488e-08 -2.445304e-06
000040 fe ff 8e b5 86 fe 89 b4 6b 1b 9c 34 4a b5 ab 34
       -1.0654328e-06 -2.570343e-07 2.9077214e-07 3.1983137e-07
000050 30 bd 2b b6 77 f0 67 b5 55 9b 54 34 d4 98 4f 34
       -2.5591107e-06 -8.640413e-07 1.9800548e-07 1.9333976e-07
000060 36 92 af b4 6d 7b 5a b6 e1 f2 be 33 53 ca 9f b4
       -3.2702673e-07 -3.2556375e-06 8.891744e-08 -2.9763268e-07
000070 38 aa 21 34 5c 71 80 b4 c8 8d 36 b5 ce ed a7 35
       1.5056219e-07 -2.3924338e-07 -6.80066e-07 1.251168e-06
000080 e0 ec 19 b4 72 30 90 b5 b7 e6 64 34 af 65 93 35
       -1.433541e-07 -1.0742936e-06 2.1318088e-07 1.0981947e-06
000090 1a 50 57 34 0f 3b 39 b4 23 81 74 35 0d 93 2a 34
       2.0052576e-07 -1.7250953e-07 9.1085e-07 1.588598e-07
0000a0 5b f7 81 b4 e9 5f 39 33 ff e8 01 b6 e9 f2 20 35
       -2.4208097e-07 4.31609e-08 -1.935812e-06 5.9958126e-07
0000b0 57 5d c2 34 1c b4 5d b4 bd 6f 08 35 d9 00 74 b3
       3.620323e-07 -2.0647752e-07 5.082655e-07 -5.6811448e-08
0000c0 ee 1c 54 35 c0 9d 31 35 59 4b 08 35 b9 e7 82 34
       7.901825e-07 6.6167195e-07 5.0773593e-07 2.4382987e-07
0000d0 0b 2a 0b 35 e4 a9 2e 35 c3 7d ce 34 f2 9e ba 33
       5.1842716e-07 6.5067275e-07 3.8461994e-07 8.690212e-08
0000e0 76 2a 8e b2 9e 52 1c 34 e8 20 67 34 30 f7 2b 34
       -1.6550285e-08 1.4558688e-07 2.1525523e-07 1.6015542e-07
0000f0 47 7b 94 b5 78 55 b7 b5 56 d0 a9 b3 d4 ee 41 b5
       -1.1062738e-06 -1.3659437e-06 -7.907572e-08 -7.2245643e-07

protein_gnn.conv3.lin_r.weight f4 [64, 64]
000000 04 1a 2e 3d 2a ab b1 bc bb 35 3b bd 8a e9 d7 3b
       0.04250528 -0.021688063 -0.04570554 0.0065891193
000010 2e e6 51 3c 70 9a 1a 3d 9a b3 1f bc bc 53 43 3d
       0.012811227 0.03774494 -0.00974741 0.047687277
000020 25 a1 54 bc 79 34 7a bd 4c b1 90 3d aa f1 76 bd
       -0.012977873 -0.061085198 0.07065067 -0.060289063
000030 14 06 70 bc ca 72 e7 3d e8 bc e8 3c 72 f9 65 bd
       -0.014649887 0.11301191 0.02841039 -0.056146093
000040 45 63 92 3d 94 48 17 bd e8 b8 c1 bd 22 e0 8a ba
       0.071478404 -0.03693445 -0.09459096 -0.0010595361
000050 2f 44 3a 3d a2 88 e3 3b 1e 63 27 bd b2 c1 0c 3c
       0.04547518 0.006943778 -0.04086601 0.008591102
000060 42 60 31 bc c9 06 b4 bc 3e 0a 63 3d 0e 8b 1e 3d
       -0.010826172 -0.021975892 0.05542969 0.03870683
000070 20 c6 4c 3b b2 6b c3 bc c2 50 5d 3d 2e 6e 79 bd
       0.0031246021 -0.023855064 0.054032095 -0.06089609
000080 f9 c3 21 bc a3 6c 0c bc fb b5 7a bd 74 cc 85 bd
       -0.009873384 -0.008570823 -0.061208706 -0.06533137
000090 8a 4f e7 bb 22 1e b9 3b 54 8b 6c 3d 01 48 5c bd
       -0.0070590423 0.005649344 0.05775006 -0.053779606
0000a0 5d 55 98 3d ed b6 e7 3c bc 6a 42 3c db 5b 51 bd
       0.07438157 0.028285468 0.011866268 -0.05111299
0000b0 63 b8 0e 3b 3c ab db 3d 57 2d 11 bc 06 85 96 3c
       0.0021777384 0.1072602 -0.0088609075 0.018373977
0000c0 49 62 0c bd 82 56 85 bd 3d 19 16 bd 35 89 8e 3c
       -0.03427342 -0.06510641 -0.036645163 0.01739941
0000d0 4e 99 da 3b 25 60 35 bd 1e 07 92 3c 77 e6 c8 bc
       0.0066711074 -0.044281144 0.01782566 -0.024523957
0000e0 cc ca 83 bd c4 39 2e bc fc 60 21 bd 3c 4d 73 3d
       -0.06435165 -0.01063389 -0.039399132 0.05939983
0000f0 e9 d5 18 ba bd 80 14 bc 46 ad d0 3c 41 17 84 3c
       -0.0005830215 -0.009063897 0.025473248 0.01612437
000100 fe 6c 9c bc 3f 95 fc bc de 0c 7f 3d 7f 67 62 bb
       -0.01909494 -0.030832885 0.06226813 -0.0034546552
000110 40 86 10 bd 5a 67 f9 3a 14 7f 9e bb 01 93 af 3c
       -0.03528428 0.0019027994 -0.0048369262 0.021432402
000120 6d b5 11 bd 11 94 d2 bc fc 35 4d bd 40 10 a2 3d
       -0.03557341 -0.02570537 -0.05010031 0.07913256
000130 43 2a 19 bd 45 98 fb 3c 06 0e 79 3d 5d 94 02 3c
       -0.03739382 0.030712256 0.06080439 0.007969943
000140 a0 e4 86 3c f6 d9 9b bc 70 4e 89 3d 52 af 4d 3b
       0.016466439 -0.01902483 0.06704414 0.0031385017
000150 24 15 a5 bc 39 d4 85 3c 8a 7f 26 bd b1 bc cf bc
       -0.020151682 0.016336547 -0.040648974 -0.02535853
000160 d6 41 d0 bc 83 02 c1 3c c0 47 9b bc ad ad 6e 3c
       -0.025422018 0.023560768 -0.018955112 0.014567775
000170 a8 ec fd 3d c4 07 79 3d 8a 8b fb 3a fd f0 3a bc
       0.12398654 0.06079842 0.0019191366 -0.011409995
000180 1a 82 8c bd 77 18 7f bd 44 54 4e 3c df 12 f0 3c
       -0.068607524 -0.06227919 0.012593333 0.029305873
000190 71 fd b3 3b 38 84 a8 3b 6e f4 ba 3b 10 24 ef 3c
       0.005492859 0.005142715 0.005705408 0.029192
0001a0 6b c6 bc bd 65 35 93 3d 51 73 5e 3d cb 78 5e 3c
       -0.09217533 0.071879186 0.054309193 0.013578604
0001b0 10 56 60 3a 29 f3 3f bd e2 67 b5 3d 96 c2 06 bc
       0.0008557746 -0.046862755 0.08857705 -0.008225104
0001c0 5c 72 4f 3d 49 80 47 3d 2a 37 56 3d 09 81 df 3d
       0.05064617 0.048706327 0.052298702 0.109132834
0001d0 01 ef 8b 3c 5d f2 ca bd ef 7b a9 bc ad 77 51 bd
       0.01708174 -0.099095084 -0.020688979 -0.051139522
0001e0 7d 4b d4 3b f5 ac 90 3d 9c 3c 51 bd 13 95 68 3c
       0.0064787255 0.07064239 -0.051083192 0.014195698
0001f0 fb f3 48 3c 01 27 bf bc 5b d5 ac bc 84 db 8c bd
       0.012265201 -0.023334028 -0.02109783 -0.06877807
000200 39 c5 0c bc 76 e2 8e 3d cf 69 e5 3b 77 b5 17 bc
       -0.008591943 0.06976788 0.0070011388 -0.009259573
000210 54 07 56 3b 45 4f 21 bd 4d 04 c2 bb 19 a0 0b 3c
       0.0032658176 -0.039382238 -0.005920923 0.008522057
000220 55 6b 97 3c 90 d8 ed 3c df 7b 13 bd 06 64 39 bc
       0.018483797 0.02903393 -0.036006805 -0.011315351
000230 bd 5c 72 bb 46 b9 81 ba e1 ba cd bb f2 4f 8b bd
       -0.0036981546 -0.0009897135 -0.006278381 -0.06802358
000240 cb 4c 07 bb 2c 92 4d 3b 9b bd 66 bd 82 d1 d3 b8
       -0.0020645137 0.0031367643 -0.056333166 -0.00010100288
000250 66 03 ae 3b 68 5d 09 3b 39 e9 11 3c 62 b8 64 3d
       0.0053104637 0.0020960215 0.008905702 0.055839904
000260 3f 7d 88 b9 63 c2 4b 3b 48 64 0f 3d c7 1a 28 bc
       -0.00026033257 0.0031091205 0.035007745 -0.0102602905
000270 4c 02 48 bd 91 39 96 bc f9 50 16 3c 88 25 1b 3d
       -0.048830315 -0.018337997 0.009174579 0.03787759
000280 a6 e6 19 3d 46 ab af 3b 52 61 2c bc 08 6b 61 bc
       0.03757348 0.0053609936 -0.01052125 -0.013758428
000290 1c b2 ac 3b b9 fb 0b bc 52 8f a2 ba d1 cc 43 bb
       0.0052702557 -0.008543902 -0.0012402332 -0.0029876719
0002a0 bf d4 43 3c a7 1b 5d bc 97 93 04 bd 29 f6 a0 bd
       0.011952578 -0.013495362 -0.032367315 -0.07859451
0002b0 54 b0 0a ba 15 57 40 3c b0 7d 7f bc e4 bf ce ba
       -0.0005290557 0.011739512 -0.015593931 -0.0015773741
0002c0 d2 2f b0 3b 0c 00 d7 bc 79 3a 67 bc a5 b5 9a 3c
       0.0053767944 -0.02624514 -0.014113062 0.018885443
0002d0 d0 cc 6b bb f0 1c 02 3d 22 2e 4c 3c 92 20 6a 3c
       -0.0035980232 0.03176588 0.012462171 0.014289992
0002e0 da 06 2e 3b 2e 4a b1 3c 10 b7 63 3c 3a 62 fa bc
       0.0026554377 0.021641817 0.013898626 -0.030564416
0002f0 fa 55 26 3d 0f 65 9c bc 41 6f c6 ba 06 20 4b 3a
       0.040609337 -0.019091157 -0.0015139357 0.00077486073
000300 ac f1 ca 3c d7 fa ac 3d b4 8d 89 bd 1e 92 5a 3d
       0.024773441 0.084462814 -0.06716481 0.053362004
000310 9b 0f 22 3c 71 e5 74 bd 4b cc 84 3d bb 82 68 bd
       0.009891416 -0.059789125 0.06484278 -0.0567653
000320 49 42 b7 3c 90 5e 60 3d 10 36 7f 3b 84 6f a8 bd
       0.022370474 0.05477768 0.0038942136 -0.08224395
000330 ea 6f 1f bd db 14 d2 bc d5 b2 2f bc ce eb 04 bd
       -0.03892509 -0.02564471 -0.010723789 -0.032451443
000340 ea 59 31 bc 2e 48 94 3d 65 06 18 bc ff 45 0a 3b
       -0.01082466 0.0724033 -0.009278868 0.002109885
000350 e9 fa 27 3d 83 6e 4c 3d 5e e7 b4 bd aa c7 4b bd
       0.04101077 0.04991008 -0.08833192 -0.04975096
000360 a2 7c 43 bb 02 f7 ca 3c ce f7 c1 bd 83 6d d4 bb
       -0.0029828926 0.024775986 -0.09471093 -0.0064827814
000370 51 1c 08 bd e5 b7 9d bc 54 7f 70 3d 3c e1 07 be
       -0.03323013 -0.019252727 0.05871518 -0.13269514
000380 0e ae 47 bd 5e 85 0a bd 90 e5 33 3d 52 9d 07 bd
       -0.048749976 -0.033818595 0.0439201 -0.033109017
000390 85 8b 37 3c 72 2b d1 3d 90 8f 27 3d dc db f2 bd
       0.011202698 0.10213365 0.040908396 -0.11858341
0003a0 bd 86 27 bd a4 a6 10 3d 3c c2 1d bd 9b 2c af bd
       -0.04089998 0.03531517 -0.038515314 -0.0855343
0003b0 2c 1a 11 bb e6 26 9d ba ad d3 8d bd 8d 00 2d bb
       -0.0022140844 -0.0011989742 -0.069251396 -0.0026398033
0003c0 7c 2e 13 bd c3 bd 7d 3d 1c e3 5b bd 4c 05 ac bc
       -0.035933003 0.06194855 -0.053683385 -0.02099862
0003d0 c9 0e 1e 3d 71 47 8d bc 45 e4 91 3c 57 d5 c8 3d
       0.03858832 -0.01724598 0.017809043 0.09806316
0003e0 71 9d ba bc 8d e5 1c 3d 1a 57 70 3c 20 da 50 3c
       -0.022780152 0.038304854 0.014669204 0.012747318
0003f0 c9 ac 76 bd b4 a5 84 bd 4e 64 86 ba 4f 46 b7 bd
       -0.060223375 -0.06476918 -0.0010253282 -0.08948957

protein_gnn.conv4.lin_l.weight f4 [64, 64]
000000 06 81 c1 bc 57 62 ae 3d 99 e5 65 bd 33 0e 2f b9
       -0.023621093 0.085148506 -0.056127165 -0.0001669459
000010 13 68 9d 3d fe 95 d6 3d 02 30 0c 3d 52 e7 80 bc
       0.07685866 0.104778275 0.03422547 -0.015735302
000020 32 29 e9 bd a8 95 98 3d d6 0c f7 b9 9b 5b d2 bc
       -0.113848105 0.0745042 -0.00047121075 -0.025678447
000030 6a fe bd 3d 56 7b e9 3d b4 3c 05 bc 95 e6 1d 3d
       0.09277041 0.114004776 -0.0081321485 0.03854998
000040 22 44 dd 3c 05 f8 e5 bd aa 8a e8 bc 5b ea c4 3c
       0.027010027 -0.112289466 -0.028386433 0.02403753
000050 94 89 b1 3d 6d 2a 9e bc 75 a3 df bd 92 2a 32 bd
       0.08668819 -0.01930734 -0.10919849 -0.04349763
000060 d2 9e 65 3d 2b b0 8e 3d b1 a1 e0 bd c7 75 d6 bc
       0.056059666 0.06967195 -0.1096834 -0.026179207
000070 10 f6 f1 bd be 7b 8c bd e8 fc 2d bc fb d0 a9 3d
       -0.11814511 -0.068595394 -0.01061938 0.08291813
000080 cb 77 44 bd 9e 86 fc bd 04 46 8f bb 84 1d 4b 3c
       -0.047965806 -0.12330364 -0.00437236 0.012397174
000090 43 b6 22 bd 59 6b 01 3d b6 61 19 3e ae 4a d9 3b
       -0.0397246 0.031596515 0.1497868 0.006631217
0000a0 34 42 25 3c 51 8c 9e bd 32 9b 20 3c 4f 27 9a bd
       0.010086585 -0.07741607 0.009802626 -0.07527029
0000b0 b4 f2 8c 3d 9d c1 12 3e c7 13 25 bd ea 1e 20 ba
       0.068822294 0.1433167 -0.040302064 -0.0006108122
0000c0 e1 1f b2 bd f6 7b b7 bc bd d6 f0 bc 7f a7 c8 bb
       -0.08697487 -0.022397976 -0.02939927 -0.0061234827
0000d0 a2 16 40 3d d7 b3 5b 3c 17 f5 70 bd 11 2f a2 3d
       0.046896584 0.013409576 -0.058827486 0.079191335
0000e0 00 a2 d3 bb 30 28 e2 bd 85 25 03 3d 92 a1 29 3d
       -0.006458521 -0.110428214 0.032018203 0.04141385
0000f0 7f 70 23 bd 0a de b4 bd 67 33 38 bd be 32 c6 bd
       -0.039902207 -0.08831413 -0.044970896 -0.09677647
000100 47 af ac 3c 3e 7b 0e bc 73 ea 08 3c 5b 86 a9 3c
       0.021079673 -0.008696375 0.008356678 0.020693948
000110 b2 94 44 3d ed 33 ab bc c1 f4 60 39 d4 af de 3c
       0.04799337 -0.020898784 0.00021453483 0.02718345
000120 13 83 25 3d 44 db 30 bd f0 7d de bc b0 b8 ae bc
       0.040408205 -0.043177858 -0.027159661 -0.0213283
000130 1f 9a d3 bc 10 b2 4a 3b 42 ab b8 bc 1a 67 4f 3c
       -0.025830327 0.0030928887 -0.0225426 0.012658859
000140 12 1b 58 3c 71 3d 5a 3d 26 8a 2e 3d 14 e9 93 bc
       0.013190048 0.05328125 0.042612217 -0.018055476
000150 01 0b 16 bc f3 9a b6 bb 8f 58 ea 3b 1c 7d b5 bb
       -0.009157897 -0.0055726706 0.0071516703 -0.005538596
000160 e2 8f 57 3d 39 05 0a be 86 38 7c 3d c6 ec ff 3c
       0.05262745 -0.13478555 0.061577342 0.031240832
000170 48 38 11 3d f6 60 7a 3d d1 a8 24 bd d6 9b 0e 3d
       0.035454065 0.061127625 -0.04020006 0.034816585
000180 91 74 57 3c 7f d1 56 3b 34 d2 b7 bc 6d 5c 8c 3d
       0.01315035 0.0032778678 -0.0224391 0.06853566
000190 b3 d3 f2 bc 10 cd 9e 3d 4c 34 20 bd 33 dc 33 3d
       -0.029641962 0.07753956 -0.039112374 0.04391117
0001a0 04 f0 94 3c 97 7f 07 3c 92 1f 37 bd 37 2f 10 3d
       0.018180855 0.008270166 -0.044707842 0.035201278
0001b0 89 74 70 bc a2 2e 02 3d ea 8a 60 bc 15 cf 3c bc
       -0.014676222 0.031782754 -0.013704995 -0.011523982
0001c0 7f 93 8b 3d 1e e5 17 bc f6 a5 06 3b fd 52 a2 bb
       0.06815242 -0.009270934 0.0020545698 -0.0049537406
0001d0 d8 db 68 3c 50 5b 16 3d 4c 9e f5 bc 9a 20 0f bd
       0.014212571 0.036708176 -0.029982708 -0.0349432
0001e0 1b 7c b3 bb 8e d2 07 3c 8e 13 e8 bc 0f ce 14 bc
       -0.005477441 0.008289946 -0.028329637 -0.009082331
0001f0 7b 84 94 3b 44 58 6a 3d 77 2a bd 3c 36 46 49 3d
       0.0045323945 0.057213083 0.023091538 0.049139224
000200 e8 56 ab bc e0 4f da 3b 64 6f 4b bc ef d3 db 3d
       -0.020915464 0.006662354 -0.012416694 0.107337825
000210 cd 39 35 bc 2e 36 10 bd 1c a2 f7 3c 0b a3 72 3d
       -0.011061144 -0.03520792 0.030228667 0.05923752
000220 58 fc 6e 3d 93 97 10 bd d7 ab dc bc 1e a6 33 bc
       0.058346123 -0.035300802 -0.026937408 -0.010964898
000230 c4 4d b8 3a 1b 32 11 3d 20 a5 0f bd 63 df c7 bc
       0.0014061262 0.035448175 -0.035069585 -0.024398511
000240 20 20 c5 3d a7 ee 44 3d 72 0f b3 3d 53 7b 31 bd
       0.09625268 0.04807916 0.0874318 -0.0433305
000250 c3 94 1b bd e7 54 5b 3d da be 9d bd 63 3b 76 bc
       -0.037983667 0.053547766 -0.07702418 -0.015028807
000260 64 eb 59 3c f5 2c ec bd 59 2d 9b 3d 80 40 1b 3c
       0.01330075 -0.115320124 0.07577009 0.009475827
000270 db bf d9 3c 92 68 4e 3d b4 e3 97 3b a3 94 62 3d
       0.026580742 0.050392695 0.0046352986 0.055317532
000280 fa 7d 93 3d ce 63 2a 3d 30 24 2c bc 9a 9d 04 3e
       0.072017625 0.041599087 -0.010506675 0.12950745
000290 eb fe e0 bc 29 31 a4 3d e8 5f a1 3b 1b 50 6a 3d
       -0.027465304 0.08017189 0.004924763 0.0572053
0002a0 54 90 46 3d 9c a3 2f 3d f6 db d4 bc ae 6f 26 3b
       0.048477486 0.04288064 -0.025983792 0.0025396156
0002b0 6d aa e6 bc 24 11 77 3d 44 bd 66 3c 42 53 cb bc
       -0.028157437 0.06031908 0.01408321 -0.024819974
0002c0 50 df db 3c 5b 5c 63 bb 27 e2 83 3c 0c 78 95 3c
       0.026839882 -0.00346925 0.016099049 0.01824572
0002d0 7a a3 40 3d de c6 78 3d 69 14 e5 bb b8 5c 1b bd
       0.047030903 0.06073653 -0.0069909585 -0.03793022
0002e0 6c fb 27 bd 0b 26 7c 3d 8a 9c 3c bd 56 45 19 bc
       -0.04101126 0.061559718 -0.046047725 -0.00935491
0002f0 84 52 02 3d 99 bc 92 3d 12 8c ac 3d b5 0f c1 3c
       0.031816974 0.071648784 0.08425154 0.02356706
000300 7e c1 67 3d 28 b8 c3 bc 96 ff d6 3b d2 eb a3 bb
       0.056581013 -0.023891523 0.00656123 -0.005002477
000310 95 f8 ba bb ed 8d 2b bc 88 c5 b7 3c 8e 46 d4 bc
       -0.005705903 -0.010470849 0.022433057 -0.02591255
000320 b8 ca ae 3c e9 7b 08 3d 8c cd 96 bc 5b f9 ec bb
       0.021336898 0.033321295 -0.01840856 -0.007231874
000330 ac 53 4a 3c 54 85 c6 bc ec de bd bb 1e 7d ff 3c
       0.0123490505 -0.024233498 -0.0057943966 0.03118759
000340 c1 9c ed bc 39 9a e7 bc f6 45 47 bd bd 7b 81 bd
       -0.02900541 -0.028271781 -0.048650704 -0.06322429
000350 93 d4 0f bd 7b 90 b5 bd 0b 03 03 3d 37 4a dc bb
       -0.035114836 -0.08865448 0.031985324 -0.0067227143
000360 be 74 2a bd 32 bc ca bc fb 96 55 bd 6c c8 20 bd
       -0.04161524 -0.024747942 -0.05214594 -0.039253637
000370 2b 7a e5 bc 11 95 90 bd f7 6a 3d bc dc 58 cd bd
       -0.028012356 -0.07059682 -0.011561147 -0.10026714
000380 23 78 90 bd 09 2e 1f bd 8f 38 1e 3d 54 33 67 bc
       -0.07054164 -0.038862262 0.038628157 -0.014111359
000390 e8 30 41 bd 2e ea f8 bb 2b 70 ac bd 00 17 76 bd
       -0.04716578 -0.007596276 -0.08419832 -0.06008053
0003a0 6c d1 08 3b 3d 21 4d bc 84 62 7a bd 58 15 f6 3b
       0.0020876778 -0.012520132 -0.061129108 0.0075098686
0003b0 68 15 90 3a 7b e2 10 bb 8c c1 0e bd b9 26 8f bb
       0.0010992708 -0.002210765 -0.03485255 -0.00436863
0003c0 e2 92 1d bd c7 cf 35 3d 82 45 71 3d b9 fb 33 bd
       -0.038470156 0.044387605 0.05890418 -0.043941233
0003d0 91 a1 85 bc 8f 3e ba bc de af 40 3d 4e 30 1c 3c
       -0.016312392 -0.022734908 0.04704272 0.009533001
0003e0 1d a0 87 bc 0c f5 0c bd 70 f4 1d bc 6f 34 13 bc
       -0.01655584 -0.034413382 -0.009640798 -0.008984669
0003f0 ac 2a 38 ba 2b ac a5 bd 68 6e 97 bc 1a c7 a0 39
       -0.00070254016 -0.08089479 -0.018485263 0.0003066592

protein_gnn.conv4.lin_l.bias f4 [64]
000000 9a 01 8f b5 6d f6 84 b5 e0 54 c5 b6 27 09 53 b5
       -1.0654796e-06 -9.906486e-07 -5.8809383e-06 -7.8616944e-07
000010 de b6 61 35 4a 13 ca 34 75 6d bb b3 af aa ad b5
       8.408514e-07 3.7639467e-07 -8.727776e-08 -1.293918e-06
000020 9d da b5 35 ed 8e 5a b6 39 3b 56 b5 02 47 4b b5
       1.3549176e-06 -3.2567725e-06 -7.980739e-07 -7.5726723e-07
000030 19 ca a0 b4 d5 47 d3 34 28 47 c6 b4 98 eb a4 b6
       -2.9949368e-07 3.9354077e-07 -3.6932147e-07 -4.9150076e-06
000040 26 41 75 35 80 4d 64 b4 ae d4 f8 b5 27 d4 00 b6
       9.1364416e-07 -2.1262349e-07 -1.8539338e-06 -1.9196975e-06
000050 bb b5 51 b4 b6 af 92 35 06 3e 94 b5 2a 9d c3 b3
       -1.9530755e-07 1.0928986e-06 -1.104491e-06 -9.108983e-08
000060 8a 4b e7 b5 e2 c1 e4 34 31 5c 8a b6 69 07 78 35
       -1.7232826e-06 4.2609378e-07 -4.123453e-06 9.239798e-07
000070 cd f6 e9 b5 04 ac 1a 35 d0 8e 66 b4 5d fe 12 36
       -1.7431681e-06 5.7619786e-07 -2.1472374e-07 2.1903754e-06
000080 8c a6 5f 36 fb 0d 9b b5 b4 07 71 36 4e 7b ba 34
       3.3326533e-06 -1.1552469e-06 3.5916282e-06 3.4734916e-07
000090 d6 6d a3 b6 0b 35 90 35 79 97 2c b6 1a a6 be b5
       -4.870565e-06 1.0744274e-06 -2.5718166e-06 -1.4204445e-06
0000a0 e8 3d 9f 35 9a cb 0b 35 cb 16 06 b6 38 c1 81 34
       1.186444e-06 5.2077814e-07 -1.9980823e-06 2.4168708e-07
0000b0 3d bc 1d 36 8a 8e 16 36 a2 20 29 b5 a7 82 2b 34
       2.3504392e-06 2.243471e-06 -6.3004893e-07 1.5973147e-07
0000c0 d9 3f 42 36 eb 77 ed b6 cd 01 9d b5 f1 b7 c4 34
       2.8945417e-06 -7.0771107e-06 -1.1697936e-06 3.664168e-07
0000d0 8e c7 19 b6 43 35 3a b5 13 ee 90 b4 7c e7 8e b5
       -2.2914933e-06 -6.9367906e-07 -2.6995312e-07 -1.0647195e-06
0000e0 18 ac 82 b5 f9 0b 97 b4 a3 10 90 b4 4d 75 b9 34
       -9.735841e-07 -2.8134653e-07 -2.6834195e-07 3.4544283e-07
0000f0 94 77 f8 b5 e0 c3 f4 b5 ef f2 94 35 64 cf e2 35
       -1.8512242e-06 -1.8236424e-06 1.1097562e-06 1.6898671e-06
